qnetwork_model_weights_13.pth (torch_old, 112496 bytes, 8 tensors)

model.0.weight f4 [64, 37]
00000000: 3dff a4bc e13c b63d e5b6 e5bd 90c4 ccbd
00000010: 861f afba 2833 0d3e 1009 b9bc 97e3 633d
00000020: 21a4 4f3c 7f3c 173d 68ee 02bd 43b0 35bc
00000030: 345a 4bbe 111c debc 54e2 7bbb ed21 a63d
00000040: 7c49 8c3d c0d0 213d c112 39bd 9581 373d
00000050: 2a91 fa3d 838d fb3d f24a 4dbd 4f32 8d3d
00000060: fc02 19be 82f2 a5bd 5c54 593e 035f 26be
00000070: 18ac bcbc 1cb0 923c b9fa c7bd fee6 593e
00000080: 7bc9 10be 3881 aa3c bb0e ffbb 7da6 0bbe
00000090: bd51 dfbd aea7 273e 7df7 3b3c e04f 1f3e
000000a0: ecd1 cdbd 6d72 b1be 7e8a f93b bad3 62be
000000b0: faef f5bc 0803 0ebd c5e5 0e3e 846b e03d
000000c0: 304a 61bd e500 8abc af89 eb3d adfb 0a3e
000000d0: e09e cb3d 2276 57bd a5d9 283e 94c6 6cbe
000000e0: 6ceb 20be de7b 0abe 0775 8abd 2ba0 59bd
000000f0: 21ed 16bd afe8 a23d 0cc3 0cbe 1b37 043e
00000100: bfe0 113e c30c 18be 5e4a d9bd 10b9 9c3d
00000110: c135 373d c044 673e fa51 7ebe a0ba 28be
00000120: 1a56 ae39 4cfe d53d 99cb 1c3e 1685 113e
00000130: 791a 103d bcea 05bd e91a 203d e67f 9fbe
00000140: 4966 9dbd 5e42 8d3e e64c 933d c9c6 acbe
00000150: 324b 4ebc e5b8 b43d cd74 a6bc e354 01be
00000160: 41d5 bc3d 9f90 63bd 3b2a 493d 498f 663d
00000170: 444c ec3d 1e26 913d 3413 30be 84b0 1cbd
00000180: 1418 b13d 3224 0e3c f7ef 46be c396 1ebe
00000190: 65ad 253e 858e 603e 910e f8bd 3262 ddbd
000001a0: 6ebf 79be 1a8f 033c 06e8 1abd e87b 29be
000001b0: 42b9 00be 924c 4b3d 321f c1bc d332 f53d
000001c0: d8b2 8bbd 6b7b 433e 63c5 ed3c a24c 79be
000001d0: d039 08be 6933 733d ba8d 7f3d 8d65 103e
000001e0: 1b83 693e a505 b83d e88c 3cbe 9244 993d
000001f0: 3113 a7bd e6e7 6cbe 72a5 0d3c 9a14 53bd
00000200: 86f7 45bd 0bb8 37be 62eb c7bd 0eb4 a73d
00000210: 9395 0ebd 72fb 9bbc e1d7 133d b21f 88bd
00000220: 8cb6 83bc a9af 253d 7b20 753d 1adc 173e
00000230: 2015 773e 9628 043e b3b4 173e 6f5f 753c
00000240: 52af cebd f8a1 25be dade e23c b835 e43b
00000250: f585 b6bd 1bb0 60bd 75ad 05be 3f83 63be
00000260: b85c aebd ca91 0e3e 3d1e 103e caf5 99be
00000270: 01b0 053e 1e80 c7be d3bb 55bd 8cd7 323c
00000280: 4b11 a8bd 7585 043d d427 a9bd 10b3 06be
00000290: c415 8fbb 525d 293d 56cd 14be 6fe9 f2bc
000002a0: 4d6c 21be e25d c0bc e5e0 ed3d 6f0e bc3c
000002b0: 7e8d 813e 3638 a13d 1068 33bd 8d65 653d
000002c0: 1e7e 8bbd bb46 a1be 1d6d 143e 4292 c6bd
000002d0: f9a5 d73b 51d2 1f3d 6982 a33e 0ee6 b33c
000002e0: 4424 8f3d 60af e93b 4352 db3b 6d83 a23b
000002f0: fbd9 afbd 74e7 173e b7fe 423e 38ba 993d
00000300: db57 4abe aa72 d7bb d1e1 eebe 0b41 2dbd
00000310: ac39 31bd f841 a13c 1d3b 1dbe bda4 0f3d
00000320: e72f b53b e159 3a3e 327d 08be 4c2b 8cbc
00000330: 3e51 82bd 4ebf 1c3e 2704 f53c ba22 a73d
00000340: 6271 e13d f70a faba e7a3 983b 57a6 e93c
00000350: 68ab fd3b 822f 763d 3732 acbc 430f 673d
00000360: c7ff a0bd fb96 03bd 34d9 bc3c bb1f 0cbe
00000370: 7979 073b 3291 193e aefb 283e 741e ddbd
00000380: 5566 adbd 96cf 4abd 4734 cfbe c72d 84bd
00000390: 35b2 9fbd fba5 0a3d 9287 903d e868 153e
000003a0: 02ee bebd 3296 343e 193d 0a3e d9f0 aabc
000003b0: e227 af3d fb64 3fbc 4a24 2dbe edaa 5d3d
000003c0: 14dc 6cbd bb59 633d 9933 acbc 22f9 f4bb
000003d0: 2c51 ba3d f439 e4bd 0195 213e da01 43be
000003e0: cd94 763d 25aa a8ba 980e a6bd e861 083e
000003f0: f9e0 d13d 3708 28bd bdc7 70bd 7060 0abc
-0.020141238 0.088983305 -0.11216525 -0.09998429 -0.0013360835 0.13789046 -0.02258733 0.05563697
0.012673409 0.036922928 -0.031965643 -0.011089387 -0.19858629 -0.027112992 -0.0038434463 0.081119396
0.068499535 0.03950572 -0.0451839 0.044801313 0.12234719 0.122828506 -0.0501203 0.06894361
-0.14942545 -0.08102895 0.21223587 -0.16247182 -0.02303128 0.017906241 -0.097646184 0.21279523
-0.14139359 0.02081357 -0.0077837384 -0.13637729 -0.10904262 0.16372558 0.01147258 0.15557814
-0.10049805 -0.34657612 0.0076153865 -0.2215108 -0.030021656 -0.03467086 0.13954838 0.10958007
-0.05500239 -0.01684613 0.115008704 0.13572569 0.099424124 -0.052602895 0.16489275 -0.23122627
-0.15714806 -0.13523814 -0.067606024 -0.053131264 -0.036847237 0.07954537 -0.1374628 0.12911646
0.1424589 -0.14848618 -0.106098875 0.07652485 0.044728998 0.2258482 -0.24835959 -0.16477442
0.00033252017 0.10448894 0.15312041 0.14210925 0.035181496 -0.032694563 0.039088164 -0.31152266
-0.07685525 0.27589697 0.071924016 -0.3374541 -0.01259117 0.08824328 -0.020319367 -0.12630038
0.092203625 -0.055557843 0.04911254 0.05628899 0.11537984 0.070873484 -0.17194825 -0.038254276
0.08647171 0.008675622 -0.19427477 -0.15487199 0.16179426 0.21929367 -0.12112153 -0.10809745
-0.24389431 0.008029724 -0.03781893 -0.16551173 -0.1257067 0.04963357 -0.023574445 0.119725846
-0.06821221 0.19090049 0.029024785 -0.2434564 -0.13303304 0.0593752 0.06239102 0.14101239
0.22803919 0.089854516 -0.18413126 0.07483782 -0.08157957 -0.23135337 0.008645402 -0.05153332
-0.04833176 -0.179413 -0.097616926 0.081886396 -0.034810614 -0.019040797 0.03609455 -0.066466704
-0.016078256 0.040450726 0.05984543 0.14830056 0.24129152 0.12906107 0.14815025 0.014976366
-0.100920334 -0.16175067 0.027694155 0.0069644116 -0.08912269 -0.054855447 -0.1305445 -0.22218035
-0.085137784 0.13922802 0.14074035 -0.30070335 0.13055421 -0.38964933 -0.052181076 0.010915648
-0.08206423 0.032353837 -0.0825955 -0.13154244 -0.0043666083 0.041348763 -0.14531454 -0.029652325
-0.1576397 -0.023482267 0.11615161 0.022956101 0.25303262 0.078720495 -0.043800414 0.05600505
-0.06811164 -0.31499276 0.14494748 -0.09695865 0.006581065 0.039018933 0.31935433 0.021960285
0.06989339 0.007131502 0.006693156 0.004959515 -0.08586498 0.14834386 0.19042479 0.075062215
-0.19760077 -0.0065749483 -0.4665666 -0.042298358 -0.04326789 0.019684777 -0.15354581 0.035069216
0.005529392 0.18198349 -0.13329008 -0.01711049 -0.06363152 0.15307352 0.029909207 0.081609204
0.11007954 -0.0019076754 0.0046582106 0.0285217 0.0077413805 0.0601039 -0.021020038 0.05641104
-0.07861286 -0.032126408 0.02305279 -0.13683979 0.0020671769 0.14996794 0.16502258 -0.10796824
-0.08466784 -0.049514376 -0.40469572 -0.06454044 -0.07797662 0.033849698 0.07057108 0.145908
-0.0932274 0.1763542 0.1349987 -0.020866798 0.08552529 -0.01168179 -0.16908374 0.054118086
-0.05782707 0.055505496 -0.021020697 -0.007475988 0.090975136 -0.11143866 0.15779497 -0.19043675
0.0602005 -0.001286809 -0.08108252 0.13318598 0.10247988 -0.04102346 -0.058784235 -0.008445844

model.0.bias f4 [64]
00000000: 36e7 1a3e 4b79 303c 6dd2 e9bd 5bf3 96bc
00000010: 6497 3d3e f0e7 f0bb ceef 47bd 82f4 bb3d
00000020: 9761 3cbc aa20 e9bd 8590 403e c6b3 2a3e
00000030: 4bcb 2b3e 5905 f83d 072d a5bb f8b5 33bc
00000040: 085f d23d 1ec9 58bb f274 c03b 8573 03be
00000050: 00a2 07bd d32b 913d b520 803d 66b2 d2bd
00000060: ed81 93bd 69c7 443e f2c1 d73c 8e02 c2bd
00000070: 2443 603e 6012 c23d bf74 1ebd 9fda 69bd
00000080: d96e 4e3e 58c4 f53c 3bab 03be 6ef6 953d
00000090: 9bf9 00bd 1a2c a43d 72c4 d4bd 68ac 53bd
000000a0: 0d8c 69bd 087e 003d df03 76bd 3dba 763e
000000b0: ca41 fe3c 536b acbd 99e5 ad3d f00e e3bd
000000c0: 72a9 eebd c50b 9f3d d0dd c6bd b97d dd3d
000000d0: 92a1 503d bb91 14be 92bf 1abe 1ead 393d
000000e0: 8e26 b43d e937 463d b689 9abd df54 a4bd
000000f0: 946f 933d 2565 923d 241c e43d 05ef 803d
0.15127262 0.010771106 -0.11417089 -0.018426588 0.18514782 -0.007351868 -0.04881268 0.091774955
-0.011497877 -0.11383183 0.1880513 0.1667014 0.16776769 0.12110395 -0.005040768 -0.010968678
0.10272032 -0.003307886 0.005873316 -0.12837036 -0.03311348 0.07088437 0.06256238 -0.10287933
-0.07202516 0.19216694 0.026337598 -0.094731435 0.21900612 0.09476161 -0.038685557 -0.05709326
0.20159473 0.03000085 -0.12858288 0.07322393 -0.031488042 0.08016224 -0.103890315 -0.05167809
-0.05701833 0.031370193 -0.060062286 0.24094482 0.03103723 -0.08418908 0.08491058 -0.110868335
-0.11653413 0.07765917 -0.09710276 0.10814995 0.050935335 -0.14508717 -0.15112141 0.045331113
0.08796416 0.048393164 -0.075457975 -0.080240004 0.07199016 0.07148198 0.1113818 0.06295589

model.2.weight f4 [128, 64]
00000000: ae72 e53c 7985 323e 8690 0f3e 3e38 743e
00000010: 626f 383e fd7b 2fbd 8b87 d1b9 e125 55bc
00000020: e0bd 4b3c 7ae1 d039 8f1c 3a3d 1ee5 b6bd
00000030: 8723 74bd 573a ef3d 505d 50bd f931 c2bc
00000040: 5fd7 62bd 99a1 8dbd adf3 503d 90ba 463d
00000050: ae25 083d 5968 43bd f0d3 0f3e 64e9 80bc
00000060: fef1 fcbc a978 bcbd 0fc2 083e 2305 233c
00000070: 9df2 293d bb32 65bd ff27 293e 4eab debc
00000080: cf90 7f3d db75 943d 57b1 1d3d 8554 a33b
00000090: cc8b babd b2e1 c13d b3e9 babd 76bb 8fbd
000000a0: cd54 2bbe 3508 223c c627 ac3c 4008 9ebd
000000b0: 729c 053e c45c 8dbd 96bd c3bd c34d bd3b
000000c0: ae37 93bd 87fe 39bd 75f5 0ebe f8bb b7bc
000000d0: dc90 9cbd 9625 ba3d 4f19 bf3d ba3d 443c
000000e0: 43aa 4c3c ba2f 92bd 24fa 5fbe 8a73 293d
000000f0: 3d74 2f3d e524 503e 329e 39be be02 acbc
00000100: 5c56 e83d b1e8 233e 50b4 03be 05ec 7d3d
00000110: 940a 8f3b 4416 663d b79f 05be 023c ef3d
00000120: 6043 7dbd 6dd0 4dbd 2372 793c e529 9a3d
00000130: e5d7 16be 3308 153d 2c7f e5bd 07e9 263d
00000140: fb72 f03d 73b4 4cbd 8479 05be 3a81 05bc
00000150: 6d2d 633d 4e8d debd 9a89 a13d 8aa9 37be
00000160: 614d 96bd c7b6 943d 0339 f83c 3c08 85bd
00000170: b500 9c3d cf11 bfbd e0ef 913c 0166 17be
00000180: 7153 04bd 90ed b1bc 8773 a83d a665 d3bd
00000190: c97d c43c e5e1 053e 442f 9c3d 357c 21be
000001a0: c65a dd3c 486d 223e 2b02 8d3d 6858 20bd
000001b0: ced5 75be a2d8 bebd 0a6a b9bd 4cc5 a2bd
000001c0: 008f ddbd 18ff 40be f52d 403b 5bf0 773d
000001d0: b195 d5bc aa9b 2fbe 36ac f63c b77e 1abc
000001e0: 76be 99bd 8207 893d 6d7c 0e3e b4f6 0e3e
000001f0: 4005 83bd 98be 1ebd 083b a5bc be65 ecbb
00000200: 6069 97bd e4f8 5fbc c066 f03d 0ced ebbc
00000210: ce79 9a3c 35c4 033d eabe 6a3c 8acb 24bd
00000220: 3fcc cd3d 1bdd 9cbd 5b99 0f3c 6e47 69bc
00000230: a7de 773d 3be4 913d e25c 413c df09 823c
00000240: b475 00be 8081 203d ad16 bf3d 10d5 f63c
00000250: 0142 00be 1128 223e 8d85 943c 8505 eb3d
00000260: 520f 11be 88be 9c3d 7ba2 373e 83cd 34bd
00000270: 6b2e cdbd 6c56 5dbc 0463 d83c d366 c83b
00000280: cf9a fbbd 88bd 74bd a4c7 bebd b0f2 8e3d
00000290: ce60 023e ea8b e03d 0ebe a9bd 1c6d 0b3e
000002a0: 6e0e 083e 1e3c 95bd ea70 a3bd b65e c1bd
000002b0: 2784 0a3d ec25 d03c 649b cf3d 5c6c 7fbd
000002c0: 1114 1fbd e004 b2bd 0ffa ecbd 2bd3 c8bb
000002d0: 4a33 babd 9121 543e b15a 92bd 0b2f c2bd
000002e0: 61b9 f0bd 19e2 f7bd a627 003d e771 ee3d
000002f0: b3c3 f6bb ddb6 5b3d dced a93d 9488 11bd
00000300: a388 d03c 803e c8bd a510 0e3d b233 00be
00000310: a3b5 b13c 5aca 973d 6bbe 66bb b00e 1bbd
00000320: abaf 8cbd f735 883c 6d6f acbc 4ef7 2b3e
00000330: eb31 93bd f770 343d ebc8 d2bd e114 78bd
00000340: 9880 15bd 9589 7ebd d8bd bcbb c962 46bb
00000350: 74c1 633c 4894 113e 76d4 343e b3a9 a53d
00000360: b3b8 383e d2c4 5c3c e70a e83c 0bb1 f93d
00000370: 80f0 d63d 90d6 42be c575 9e3c 67e2 8dbc
00000380: ded1 f2bc e0a2 4bbd a4a3 7b3d 7255 de3d
00000390: c59c 9fbd 1196 e53d bec8 c9bc 778e 99bd
000003a0: 051b debc c242 773e 1173 1b3d 2397 02bc
000003b0: 37e0 7fbc 2518 233d 7187 3e3d 2ab9 f03c
000003c0: 70ce aa3c 8b0c 0f3b 5b4e f4bd b1ef 5b3d
000003d0: 6cf6 cc3d fd96 bc3d d83c c93a 6c5d 1c3d
000003e0: 3834 f7bd b3cc aabd 5b82 b6bd 004f fa3d
000003f0: e766 1fbd 6177 cb3d b365 93bd 128a 133d
0.028008785 0.17433728 0.14019975 0.2384958 0.18011239 -0.042842854 -0.00039964574 -0.013009519
0.012435406 0.00039840845 0.04543739 -0.089304194 -0.059604194 0.11681049 -0.05087024 -0.02370547
-0.055381175 -0.06915588 0.051013637 0.048517764 0.03323906 -0.047706936 0.14045691 -0.01573629
-0.03087711 -0.092027016 0.13355277 0.009949955 0.04149114 -0.055956583 0.16519164 -0.027181294
0.06239396 0.07249042 0.038499203 0.0049844407 -0.091086954 0.09466876 -0.09126606 -0.07018177
-0.16731568 0.009889652 0.02101506 -0.07716417 0.1304796 -0.06902459 -0.09557645 0.005777092
-0.071883544 -0.04540875 -0.13960822 -0.022428498 -0.07644817 0.090892 0.09330999 0.011977607
0.012491765 -0.07138009 -0.21872765 0.041369952 0.042835463 0.20326574 -0.18126753 -0.020997401
0.11344597 0.16006733 -0.12861753 0.061992664 0.0043652747 0.056173578 -0.13049208 0.116813675
-0.061831832 -0.0502476 0.015224966 0.07527522 -0.14730795 0.036384773 -0.11205897 0.040749576
0.11740681 -0.049976777 -0.13034636 -0.008148486 0.055463243 -0.108667955 0.078875735 -0.17935768
-0.073389776 0.072614245 0.030300623 -0.06495711 0.07617322 -0.093295686 0.017814577 -0.14785005
-0.03230614 -0.021719724 0.0822516 -0.10322122 0.02398576 0.13074453 0.07626203 -0.15770037
0.027020823 0.15862 0.06885179 -0.03914681 -0.24007341 -0.09318663 -0.090534285 -0.07947788
-0.10818291 -0.1884731 0.0029324268 0.060531955 -0.026072355 -0.17149225 0.030111413 -0.009429625
-0.07507031 0.06690885 0.13914652 0.13961297 -0.06397486 -0.038755983 -0.02016975 -0.007214277
-0.073931456 -0.01367018 0.11738348 -0.028799556 0.01885691 0.03216954 0.014327744 -0.040233172
0.100487225 -0.0765936 0.00876459 -0.014238222 0.060515072 0.0712361 0.01180193 0.015873848
-0.125449 0.039186 0.09330497 0.030130893 -0.12525178 0.15835597 0.018130088 0.11475662
-0.14166 0.076535285 0.17933075 -0.044141304 -0.10018619 -0.013509374 0.026414402 0.006115773
-0.12285387 -0.059751064 -0.09315422 0.06979883 0.1273224 0.109641865 -0.08288203 0.1361584
0.13286754 -0.07286857 -0.07980521 -0.09441893 0.033817437 0.025408708 0.1013706 -0.0623592
-0.038837496 -0.08692336 -0.115711324 -0.006128689 -0.09091814 0.2071593 -0.07146204 -0.09481629
-0.11754108 -0.121036716 0.03128781 0.11642819 -0.0075306534 0.05364119 0.08297321 -0.03553064
0.025455778 -0.09777546 0.034683842 -0.1251972 0.021693056 0.074116424 -0.0035208713 -0.037855804
-0.068694435 0.016627295 -0.021049226 0.16793558 -0.071872555 0.044053044 -0.10292228 -0.060566787
-0.03649959 -0.062142927 -0.005759936 -0.0030271283 0.013901103 0.14216721 0.17659172 0.08089008
0.18039207 0.01347466 0.028325511 0.121919714 0.104950905 -0.19027162 0.019343266 -0.017319871
-0.029641088 -0.049715877 0.061435357 0.10856141 -0.07793573 0.112102635 -0.024631854 -0.07497876
-0.027112493 0.2414656 0.037951533 -0.007970604 -0.015617422 0.039817948 0.046515886 0.029385168
0.02085039 0.0021827545 -0.119290076 0.053695384 0.10007939 0.09208486 0.0015353216 0.03817503
-0.12070507 -0.083398245 -0.08911582 0.12222099 -0.038916495 0.09934879 -0.07197132 0.036020346

model.2.bias f4 [128]
00000000: 2495 053d e114 ed3c fbb3 643d 6327 50bd
00000010: 2ce1 c73d 3946 203e 9fac 8a3c 2035 4e3c
00000020: dcc6 c53d be78 443e 1b25 f53a bbb5 bbbc
00000030: 0ff4 65bc 5b72 f8bd f39e 7bbc 1a3c aebd
00000040: 36ee 8b3d a0f8 7a3d b78f 1f3e 3959 81bd
00000050: 0230 7e3d 93e1 cbbc c7f5 e6bc 8f97 50bd
00000060: 6f1e 35bd 6250 e9bc f852 7c3d 7bb7 0e3e
00000070: 02bf d33b 6f6f 333e de02 9b3b b0d6 3b3d
00000080: d746 c0bd 0962 013e fa47 243e 97bb 9e3d
00000090: 408d b4bc 06cb d9bc baeb 9bbd ce59 d0bd
000000a0: 7678 b63d 3346 153e 696a e33d 3302 e63d
000000b0: 00ac ffbc 7d36 583d 0786 acbc 2398 ecbd
000000c0: 6399 4fbd 6c5c 86bd cad8 153e 8c1e b7bd
000000d0: 33ef f93d 37a2 bdbc d9d1 893d 5c4d 1f3e
000000e0: a846 8bbd 0345 6f3c 8352 a43d d99a 17bd
000000f0: f42f a43c 6a98 183e 20e2 48ba 6f13 0d3e
00000100: 749f dabc c31d 413c 0a2d 6b3c 7b03 bebd
00000110: a28b c13c be27 c63d a687 bdbd b5bf 213e
00000120: f2d7 78bc 686e 133e b058 083d 26ed 15bb
00000130: 09f9 be3d 376f d3bc ee14 0ebd b9b6 54bb
00000140: 9bec 19be 74af 873d 6368 883c de17 c13d
00000150: 359d 013e c94c c63d efd1 b93d 508d 2c3d
00000160: 08d3 b9bd 3275 593d 43f8 66bd 173e f03d
00000170: 533a c53d 0508 fd3c 2361 fcbd 11a3 18be
00000180: 6d51 9ebd 85d6 023e 788d 033e f7c8 04be
00000190: aa69 14be ce05 173e 0b48 ac3d 9a82 ccbd
000001a0: d002 59bd 7553 e13d 458d da3c 74b5 553b
000001b0: 15ab dfbd f2c2 edbc 2642 febc c68f 7ebd
000001c0: 2fb5 c9bd a00c 173e 1e4c 8ebc ca13 c83c
000001d0: 47f8 a2bd c73c ac3d c27a ce3d 47b0 b43d
000001e0: 52af 493d f406 80bd 91fb f03d 6d61 77bd
000001f0: 3a30 953b 90ed 4cbb ac4c f0bc b6d3 4c3c
0.032612935 0.02894062 0.055835705 -0.050818812 0.09759745 0.15651788 0.016928015 0.012585908
0.0965707 0.19186684 0.0018703075 -0.022913804 -0.014035239 -0.121311866 -0.015357721 -0.08507557
0.068325445 0.061272264 0.15582167 -0.06315846 0.062057503 -0.024887836 -0.028193368 -0.050925788
-0.044218477 -0.028480712 0.061602563 0.1393718 0.006461979 0.17522977 0.0047305664 0.04585904
-0.09388512 0.12635054 0.16043082 0.07750624 -0.02204001 -0.026586067 -0.07613321 -0.10173379
0.08909695 0.1457756 0.111042805 0.11230888 -0.031209946 0.05278634 -0.021060003 -0.11552455
-0.05068339 -0.06560597 0.1463348 -0.08941373 0.12203827 -0.02314864 0.067294784 0.15556854
-0.06800586 0.014603856 0.0802355 -0.03701291 0.020042397 0.14901891 -0.000766309 0.13776945
-0.026687361 0.011786881 0.014354 -0.092780076 0.023626152 0.09675549 -0.092543885 0.15795787
-0.015188204 0.14397585 0.033287704 -0.0022876947 0.093248434 -0.025809867 -0.03468793 -0.0032457544
-0.15031664 0.06625262 0.016651338 0.094283804 0.12657626 0.09682614 0.09073245 0.042126954
-0.09073454 0.05309028 -0.056389105 0.11730593 0.09630265 0.030887613 -0.12323215 -0.14905955
-0.077303745 0.12777145 0.12846935 -0.12967287 -0.14493433 0.14748308 0.084121786 -0.09985848
-0.052981198 0.11002246 0.02667869 0.0032609375 -0.10921303 -0.029023621 -0.031037401 -0.06214883
-0.09849011 0.1475091 -0.01737028 0.024423499 -0.079575114 0.0841003 0.10082008 0.08822685
0.049239464 -0.06251326 0.117667325 -0.060395647 0.004552868 -0.0031269528 -0.029333435 0.012501648

model.4.weight f4 [128, 128]
00000000: 118d 76be 946b 1dbd 45d0 6c3d 6ca5 9c3d
00000010: 6963 e5bc 2e2f 6c3d 7de2 443e b377 b7bc
00000020: b942 d23d 761d 913d 09d0 423d fc09 21be
00000030: af7f 743d a128 b7bd cb29 033d 3b96 a23b
00000040: 834c edbd 7578 91be c0da a13d 873b 533c
00000050: f54c 17bd ad7f 8a3c 9df7 7abc e59e 143c
00000060: 388f 32bd b735 16be d00f 533d aa9c 9bbd
00000070: 6ac5 56bd 99c5 a53d 78c8 50bd 640d a5bb
00000080: d762 cb3c ba2a 6ebd 126e c43d c416 e73d
00000090: 2878 c5bd e216 ae3c d5a0 873d ca1b 9e3d
000000a0: 1b62 abbd 0962 363d 0815 b5bd f5da 41bd
000000b0: 7e2e 9a3d f6dc a93d 5025 86bd ebaf 003e
000000c0: d183 b5bc 5397 ef3d 4ef5 bc3d 0a13 213d
000000d0: da1a 9dbc 8210 973d 5c8d c63c 11fb 8dbd
000000e0: 58f1 a03d ac24 b7bc 91aa 2cbc b07d 1b3c
000000f0: 07b2 c33d 2497 b9bc 247c 19bd 5842 a9bd
00000100: bea4 2f3d c871 223d e92c 26bd c9eb c83d
00000110: d86a 4dbc cbac e2bd a6ac 6fbc 89b4 0c3d
00000120: eb49 f83d 1bc7 9fbd 1905 2c3e a2ee 9139
00000130: 2622 42be 03ec 403d fe47 a1bd 60c4 5b3c
00000140: 25bd cd3c c8b0 403e e71b ccbc 4222 88bd
00000150: db10 dd3b 1301 41bd 4cf1 2f3d 3101 a2bd
00000160: d23a 0fbd 503f f6bd 157d a3bc c1f7 8d3d
00000170: 20b6 893d f826 df3d 8be7 c9bd bd40 ee3c
00000180: 95b5 fd3d ad91 7dbc 0170 c4bd 2225 19bc
00000190: 43f5 05bd d546 cf3d ebce d23b 3512 253d
000001a0: 7852 013d 1c1d 0bbd 3976 25bd 23fd dcbd
000001b0: 0391 a4bc a49e bcbd fc2f 09bd e678 e6bc
000001c0: c1d3 ce3c 8e87 80bd 77a6 afbc e99e fc3d
000001d0: 9c21 b93d 8255 043d 9115 63bd 543f a53d
000001e0: 4861 803d 74ef d4bc f011 0bbe d201 b0bd
000001f0: e75b dabc 6109 c43c 2b44 21be 71f5 bd3c
00000200: 8e57 15bd bf25 813c 7704 9b3d 47f8 c23d
00000210: b0d3 93bd e6f6 323d 4703 283d 27f0 40bd
00000220: b97a 85bc 2cfb e73d 2339 7d3d 1324 073e
00000230: edb9 fd3d dc12 f43c 981c 003d 460c 423d
00000240: 8f69 27be b609 d03a f4d9 e93d 02d5 9f3d
00000250: 103c b23d 1ced 66bc b17b 03bc 1525 e6bc
00000260: 6e0f bcbd a6b3 163e f40a 00bc 9479 863d
00000270: e66a 6abd 8c2a 763d 6f28 c8bd f34d 493d
00000280: 407d 713d eaba 053d 1d5d 543d 611d 8f3d
00000290: 3c5c e13d d9bb b2bd 32e8 a6bd abb9 84bd
000002a0: 4106 9abd 1a6c a43a 0c4f 833d d999 c63d
000002b0: 28b5 74bd 6814 e33c 0f6c 7f3c 3875 ecbd
000002c0: 53bf 693d 3916 323d fbfb f9bc fac2 6d3c
000002d0: 1db6 793a a992 203e 4824 d83d 3e32 cf3d
000002e0: 0f80 d93d 8ca2 c13b 52c7 d2b9 acf8 183d
000002f0: fb03 04bd cadf 1a3d 8061 c0bc 7800 fc3d
00000300: ca56 663c 0634 c33d 158d 9a3d 483f ae3d
00000310: 4979 a5bd f703 4abd 7ae5 8cbd b388 da3d
00000320: d899 42bc 1d9c bb3d 42b7 413e 3840 ec3d
00000330: 90d0 31bd 3968 e43c 25a1 cabd a483 23bd
00000340: 36ae b8bd ae8d 3ebd 623f ab3d d35d 6b3d
00000350: 05ac c93d 9957 8a3d c3f3 6e3d ce6e 18bd
00000360: a3d6 f4bb 4d64 f53d 20b7 eebd 3412 073d
00000370: a058 38bd 1253 32ba d693 73bb 1f24 29bd
00000380: d42f c43b ba41 813d 3ef7 c93d 2ed0 ebbc
00000390: 302e 3b3d 0e0b 73bd 3e16 42bc c762 3a3d
000003a0: 5b8d b13c 5acf 843d 3d45 47bc e14c f03c
000003b0: 4a88 5ebc 28f4 2fbd d9e7 2f3d 47aa 303d
000003c0: 75f6 643d 8425 1a3c 07c7 d1bc af20 0c3d
000003d0: 5c02 f03d 47cf 1dbd 9033 73bd 62f9 893d
000003e0: 83d3 6f3d a549 67bd 1adf ba3c 54b2 743d
000003f0: 83f7 593d e11a d53c 2613 9d3c d8ce 5c3c
-0.2407725 -0.038432673 0.05781581 0.07648739 -0.028001504 0.05766218 0.19227023 -0.022395944
0.102666326 0.07085697 0.04756168 -0.15726465 0.05969208 -0.08943296 0.03202228 0.0049617565
-0.11586859 -0.28412214 0.079030514 0.01289261 -0.036938626 0.016906584 -0.015317825 0.0090710865
-0.043593615 -0.14668928 0.05152875 -0.07598241 -0.052434362 0.080943294 -0.050972432 -0.0050369967
0.024827404 -0.058146216 0.09591307 0.11283639 -0.096420586 0.021251146 0.06622473 0.07720144
-0.083683215 0.044527087 -0.08841902 -0.047327954 0.07528399 0.08294098 -0.065500855 0.12567107
-0.022157582 0.11698785 0.09226476 0.039324798 -0.019177843 0.073761955 0.024237327 -0.06932653
0.07858533 -0.022356354 -0.010538713 0.009490415 0.095554404 -0.022655077 -0.037471905 -0.08264607
0.04288172 0.03965929 -0.040570173 0.098105974 -0.012537681 -0.11068114 -0.014628565 0.03435186
0.12123474 -0.07801648 0.1679882 0.0002783435 -0.18958339 0.04710008 -0.078750595 0.013413519
0.025114605 0.18817437 -0.024915649 -0.06647159 0.006746394 -0.047120165 0.042954728 -0.079103835
-0.034968205 -0.12023795 -0.019957105 0.06932021 0.06724191 0.108961046 -0.098586164 0.029083604
0.1238815 -0.015476626 -0.095916755 -0.009347232 -0.032704603 0.10120932 0.006433358 0.040300567
0.03157279 -0.033963308 -0.04039595 -0.107904695 -0.020088678 -0.09209946 -0.033493027 -0.02813382
0.025247457 -0.06275855 -0.021441681 0.12334997 0.090396136 0.03230811 -0.05544049 0.080687195
0.06268555 -0.025993086 -0.13581061 -0.08594097 -0.02665515 0.023930253 -0.1574866 0.023188325
-0.03646045 0.015765069 0.07569211 0.095200114 -0.072181106 0.043692492 0.04101875 -0.047104027
-0.01629387 0.11327204 0.061822068 0.13197355 0.12388978 0.02979415 0.03127727 0.047374986
-0.16348861 0.0015872035 0.114185244 0.078043 0.08702862 -0.014094617 -0.008025096 -0.028093854
-0.091826305 0.14716968 -0.007815111 0.06566158 -0.057230853 0.06009917 -0.09773337 0.049146604
0.05895734 0.03264896 0.051846612 0.069880255 0.110039204 -0.08727235 -0.081497565 -0.06480726
-0.07520724 0.0012544424 0.06411561 0.09697313 -0.059743077 0.027719691 0.015589728 -0.11545795
0.057067227 0.043478224 -0.030515661 0.014511818 0.0009525733 0.15680946 0.10553795 0.10117005
0.10620128 0.0059092697 -0.00040202826 0.037346527 -0.03223036 0.037811078 -0.023483992 0.12304777
0.014058778 0.09531407 0.075464405 0.08508164 -0.08079774 -0.049320187 -0.06879707 0.106706046
-0.0118774995 0.091606356 0.18917564 0.11535686 -0.04341179 0.027881728 -0.09894017 -0.039920464
-0.09017603 -0.046521835 0.08361699 0.057462525 0.09847263 0.06754989 0.058337938 -0.037215047
-0.0074718758 0.119820215 -0.11656022 0.032976344 -0.045006394 -0.00068025396 -0.0037166975 -0.041294213
0.005987147 0.063113645 0.09861611 -0.028785791 0.045698345 -0.059336714 -0.011846123 0.045504358
0.021673849 0.06484862 -0.012162504 0.029333534 -0.0135822985 -0.042957455 0.042945717 0.04313114
0.055899102 0.0094083585 -0.025607599 0.034210857 0.117192 -0.038527753 -0.059375346 0.06737019
0.058551323 -0.056466717 0.022811461 0.05974038 0.05321456 0.026013793 0.01917417 0.01347705

model.4.bias f4 [128]
00000000: 8f86 d83c da69 1a3d 2fb3 db3d 7451 c2bc
00000010: ef55 c23d a01a 723c f59e 7c3d f86d e93d
00000020: 2ae5 01be f388 083c ed90 a13d 5cd4 523c
00000030: 284c 60bd 7ad5 ae3a 98fa f4bc b8fc 5d3d
00000040: 2986 dabd 87c7 21ba 2e97 f537 7315 89bc
00000050: eedd a63d 6cbe 983c 16f2 523d bfed f23d
00000060: 99cb f23c a8e6 9dbd b318 953d b44a dbbd
00000070: 1529 9e3d e0d9 7a3d ba52 b1bd 520f b2bd
00000080: 0fa0 823d 10c1 c5bb b936 b03c c670 ab3c
00000090: e515 e1bd 9fbe 62bb ae4d d83c 52dc 613c
000000a0: 323a a13b 01fd 223e e580 7b3d 5c8a 63bb
000000b0: 9ee9 fc3d 652e 313d 2b0c 0cbd b42d 53bd
000000c0: 9bba fcbd 902f 983d 8c6b 253d 6d07 123e
000000d0: fa41 b3bc 48ab 903d cabc ad3c 92b4 d9bd
000000e0: d24b 993d 412b cc3d d1dd 843d d4a5 18bd
000000f0: fd83 553d 871b 213e 9053 b23d 7a62 9f3d
00000100: 60f3 073e feb1 86bc 267b fc3c e2a6 c0bd
00000110: 004e d63c f447 96bc a492 2c3e 6d46 90bd
00000120: f937 e0bd 30a2 af3c 45eb 41bd 225f 1e3e
00000130: 24bc e33d 08ec 11bd 412f 9b3d 5b40 da3d
00000140: edf2 783c 23dd e93d 3c41 d13d f0c3 013e
00000150: dcbd 753d accb 83bd c45c 3cbd 46ce 923d
00000160: 2b48 c33d 1f1b 103e 3052 553d 1776 7dbd
00000170: 90d1 f4bc 77be 873b 5c97 58bd 7d61 95bc
00000180: 6a12 b23c 2bbe b8bd fd02 5c3d 3774 a2bc
00000190: 8772 27bd d9bb 4b3d 46e7 653b ef47 d53d
000001a0: bc54 0a3e ba82 eabd 1207 00bc d392 6fbd
000001b0: f405 c5bc b6dc 873d 1c74 8cbc 00a5 2e3d
000001c0: 5a82 63bd d1a1 63bd 34f4 83bc 50b9 00bc
000001d0: e3bd 483d 514a 22bd 359c 1f3e 1dd6 553d
000001e0: 2f4a af3d c43c 3b3d ce99 02be 7bbe c3bc
000001f0: 6e0e 52bd 710b 8cbd e25e ff3d accf 1d3e
0.02643135 0.037698604 0.10727536 -0.02372048 0.09489047 0.014776856 0.06167503 0.11397928
-0.12685075 0.0083334325 0.078889705 0.012868013 -0.05476013 0.0013338767 -0.029904649 0.05419609
-0.1067012 -0.00061713945 2.9276674e-05 -0.01673386 0.081477985 0.018645488 0.051500402 0.11861753
0.029638099 -0.0771001 0.072801016 -0.10707608 0.077226795 0.061242938 -0.08658357 -0.08694328
0.06378185 -0.0060349777 0.021510469 0.020927798 -0.10990504 -0.0034598482 0.026404228 0.013785439
0.0049202675 0.15916826 0.06140222 -0.003471992 0.123492464 0.043257136 -0.03419129 -0.051557258
-0.1234028 0.07430947 0.040385768 0.14260645 -0.021882046 0.07063919 0.021208186 -0.10630144
0.07485165 0.099691875 0.064876206 -0.03726752 0.052127827 0.15733157 0.087073445 0.07782455
0.13276434 -0.016442295 0.03082044 -0.0940683 0.02616024 -0.018344857 0.16852814 -0.07044683
-0.10948176 0.021439642 -0.04734351 0.15465978 0.11119869 -0.035625488 0.07577372 0.10656806
0.015194637 0.114191316 0.102175206 0.126724 0.059995517 -0.06435332 -0.045986906 0.0716825
0.09535249 0.14072846 0.052080333 -0.061880197 -0.029885083 0.004142578 -0.052878723 -0.018234963
0.021737296 -0.09020647 0.053713787 -0.019830806 -0.040880706 0.049739692 0.0035080477 0.10414111
0.13508886 -0.11450715 -0.007814186 -0.05848963 -0.02405069 0.06633894 -0.017145209 0.042637825
-0.055544235 -0.055574242 -0.016107656 -0.007856682 0.049009215 -0.039621655 0.15586932 0.052206147
0.08559071 0.045712247 -0.12753984 -0.02389454 -0.051283292 -0.0683812 0.12469269 0.15411252

model.6.weight f4 [4, 128]
00000000: 8b47 b9bd 84e5 ce3d ab31 823d 7bd1 48bd
00000010: c908 ed3d d749 523e b247 923c 54b4 a73d
00000020: c425 00be e600 f13d 0f6c db3a 71c2 78bd
00000030: 443f b43d 900c 3bbd fa0b 393e 2e2b 3fbc
00000040: 9205 693c 8114 dd3d 97af da3d f8e2 123e
00000050: 4b07 8c3e 3ee3 883d 7840 153e 3ec7 9a3c
00000060: ccd0 883e 7286 47be 4359 af3d 27cd a63d
00000070: ab74 b83d c587 d73c 3b58 bfbd c444 fe3d
00000080: b9e5 2f3e 1fef 513e 4712 debd 6ed8 193e
00000090: b49c 223d e4fa fd3d 3fb4 bf3d b30f 193e
000000a0: ddd0 963d e51b dc3d 4bb3 35bd 09ee 03bd
000000b0: ba06 923d 1491 5d3d 0cbc 223d 841b 91bd
000000c0: 649b 9ebd e05e 64be 0c53 343e 2959 b93d
000000d0: c022 2bbe 1040 c13e ca8c bbbc bb4b d4bd
000000e0: b6c7 373d 51a4 ec3d d423 cfbd 0319 7ebc
000000f0: fac0 11be e610 433d d708 6d3d d318 7ebd
00000100: 3fb1 d43d e2cb fdbb e792 09bd e795 233e
00000110: fd23 aabd 67ca 7fbd 0689 0f3e f8bb 5f3d
00000120: bdeb 14be e968 bfbd 3c5a a53d a43b db3d
00000130: 622c 45bc 48da aaba abb7 c7bc bcad ab3d
00000140: fc08 453d 74f4 e13d a992 f33d 8c4d 40bd
00000150: 3b27 c23d 9a4b c5bc 03b7 073e cbfa 63bd
00000160: 474c 2f3d 0d22 b33d 4142 3ebd 7709 90bd
00000170: f6b0 5fbe ccc0 56bd ead9 2e3d 0e1c 04bd
00000180: e25f 56bd 5a70 3f3c 4085 74bd 7b88 aa3d
00000190: e94d 0bbe bb28 a63d ea9c 37be b741 13bc
000001a0: 34ec 523d e4ef 28bd bcac 56be c721 ce3d
000001b0: 68ff 9bbc f480 4c3e bf92 49bd 7108 6ebc
000001c0: b599 803d 002d a63d 2b57 d4bd 4e7f 86bd
000001d0: 420d 233e ec21 b23d 5796 f73d 2e89 2dbc
000001e0: a6dc 0abe 6ede 363e d9f3 29bd 1402 bf3d
000001f0: c0fb 85be 46ce 56be 2ff6 593d 71d4 ce3d
00000200: 5528 2bbb 52f4 673d fae1 20bc 15d8 403d
00000210: 52aa 8fbc b427 e23d 6dd4 ce3d 6e9b fc3d
00000220: 6666 743c 6fb9 55bd fa7b a73d f548 9dbc
00000230: f2fe 853d b83f 04be 4f9c 463d f3cf ff3d
00000240: 5643 87bd 0f7a 5c3c 14ba 6bbd e8dc 0cbe
00000250: 1b96 113e a7cc 57bd b7a2 7ebd e901 063e
00000260: b6a2 363d cf6d 0cbe 2bf7 c3bd 3c8d d6bd
00000270: def0 86bb e87b 163e 94ba 0dbe de8a 4abe
00000280: 5e29 8c3d d86a a43e fe0a 66be 49c8 823e
00000290: 3875 4c3d 9736 233e fea9 a13c 288a 39bd
000002a0: 9d87 fdbd d781 643d b943 bb3d ec16 00bd
000002b0: 1258 e13d 2208 db3d 794c 12ba e205 5abd
000002c0: fa4a 00be 0921 b9bc ef11 013e 2be0 373d
000002d0: b4aa 9bbd b04b 663e cdf1 383d 25f5 fa3b
000002e0: de89 b7be fabb 04bc b3a2 a4bd efff 2cbe
000002f0: 7b99 18be f70c b93d d61e 5fbe ebf6 d6bd
00000300: 1eab 76bd 0bb5 893d 9292 50bb 413e 20be
00000310: 3c40 273e 0d33 02be 26a0 073e 9628 9ebd
00000320: 861b d7bd 3b4c adbd 0d17 6d3d ad36 773c
00000330: f61e b23b 38c3 92bc b5a2 cebb 7ae6 0a3e
00000340: ce15 263e b30a 23bd c468 e43d 1df6 f73d
00000350: dece 6a3d 7314 033d ebed 953d e40f d63d
00000360: c994 0b3e 9269 5fbb 4370 d43b 2c17 bcbc
00000370: bf0b 36be cdee aa3d 3370 e13d 03c5 0abd
00000380: be34 0fbe 35d8 1a3d e4ea e53d 1cab 55bd
00000390: 07d7 a1be 07d3 823d 112a 90bc 493a 9ebe
000003a0: f2ef 803d 5ea5 b2bc 957b ddbd a7d0 68be
000003b0: 93b3 ec3d da68 bfbd 3870 7fbe 7134 81bd
000003c0: 2283 343e 42d3 63be eec7 563d f6c1 3c3d
000003d0: fb6f cf3d 5a0b af3d 8af5 403d 2e98 1e3d
000003e0: 5793 133c 24e6 753d 44dd 50bd 896f 2c3e
000003f0: 25d1 363e c05e 0dbc 9315 a139 0b37 0d3e
-0.09046849 0.101023704 0.0635713 -0.0490279 0.11573941 0.2053598 0.017856453 0.08188692
-0.12514406 0.117677495 0.0016740578 -0.06073231 0.088011295 -0.045666277 0.18070975 -0.01166801
0.0142225195 0.107949264 0.10678022 0.14344394 0.27349314 0.06683968 0.14575374 0.018893834
0.267218 -0.1948488 0.08561947 0.081445985 0.09006628 0.026309857 -0.093430005 0.1241546
0.17177476 0.20501374 -0.1084333 0.15023968 0.039700225 0.12401369 0.09360551 0.14947395
0.07364056 0.10747508 -0.04436044 -0.03220943 0.07130189 0.054093435 0.039730117 -0.07085326
-0.07744482 -0.22301817 0.17609805 0.09050209 -0.16712475 0.37744188 -0.022894282 -0.10366007
0.044868194 0.11554778 -0.101142555 -0.015508893 -0.14233771 0.047623537 0.05786976 -0.062035393
0.103853695 -0.007745252 -0.033587363 0.15975152 -0.083076455 -0.062448885 0.14017114 0.05462262
-0.14543052 -0.09346182 0.080738515 0.10704735 -0.0120345075 -0.0013035024 -0.024379572 0.083827466
0.04810427 0.11032954 0.118932076 -0.046948954 0.09480139 -0.024083901 0.13253407 -0.055659097
0.042797353 0.08746729 -0.046449903 -0.07033055 -0.21844849 -0.05242996 0.042688288 -0.032253318
-0.052337535 0.011684502 -0.05969739 0.08326813 -0.13603939 0.081132375 -0.17930952 -0.008987836
0.051494792 -0.041244403 -0.2096433 0.10065036 -0.019042686 0.19971067 -0.049212214 -0.01452838
0.06279317 0.08114052 -0.103681885 -0.0656725 0.15923026 0.08697876 0.12089222 -0.010591788
-0.13560733 0.17858288 -0.041492317 0.09326568 -0.26168633 -0.20977125 0.053213295 0.10099114
-0.002611657 0.056629486 -0.009819502 0.047081072 -0.01753727 0.11042729 0.10099111 0.12334333
0.014916992 -0.052178796 0.081779435 -0.019199828 0.065427676 -0.12914932 0.04848891 0.12490835
-0.0660464 0.013456835 -0.057550505 -0.13756144 0.14217417 -0.052685406 -0.062166896 0.13086666
0.044588767 -0.13713764 -0.09568628 -0.10476157 -0.004118069 0.14695704 -0.13840705 -0.19779536
0.06843828 0.32112765 -0.2246513 0.2554343 0.049916476 0.15938793 0.019734379 -0.04529777
-0.12379382 0.055787887 0.091437764 -0.03127186 0.11003126 0.106949106 -0.00055808533 -0.053228267
-0.12528601 -0.02259876 0.12604497 0.044891518 -0.076009184 0.2248981 0.045152474 0.007658618
-0.35847372 -0.008101458 -0.08038845 -0.16894506 -0.14902298 0.09035676 -0.21789107 -0.104963146
-0.060221784 0.06723984 -0.0031825644 -0.15648748 0.16333097 -0.12714787 0.13244686 -0.07722585
-0.105032966 -0.084618054 0.05788331 0.015088719 0.0054358197 -0.017915353 -0.0063060173 0.13564482
0.16219255 -0.039805125 0.11152795 0.12107489 0.05732619 0.032001924 0.0732077 0.1045225
0.13630976 -0.0034090024 0.006483109 -0.022960268 -0.17777918 0.08346329 0.110077284 -0.03387929
-0.13984963 0.037803847 0.112264425 -0.052165136 -0.31609365 0.063879065 -0.017598184 -0.30903843
0.06295766 -0.021807369 -0.10814587 -0.22735845 0.115576886 -0.09346171 -0.24945152 -0.063088305
0.17628148 -0.22248557 0.05243676 0.046083413 0.101287805 0.08547087 0.047109164 0.03871935
0.0090072965 0.060033932 -0.050992265 0.16839422 0.1785322 -0.008628547 0.00030724387 0.13790528

model.6.bias f4 [4]
00000000: 6520 063e 48e0 d73d e7d2 de3d 3fbb 113e
0.13098295 0.10540825 0.1088007 0.14231585
