qnetwork_model_weights_17_5.pth (torch_old, 112496 bytes, 8 tensors)

model.0.weight f4 [64, 37]
0.009462417 0.14476492 -0.14820689 -0.13845712 -0.3548632 -0.038498294 0.06646882 0.10646916
0.04922185 -0.117677525 -0.1571111 0.07299327 -0.09828147 -0.111694604 -0.08731688 -0.0719562
0.09660354 0.09530795 0.034948558 -0.035328828 0.07731506 0.2527449 -0.08914391 -0.11030957
-0.23145632 -0.12852393 0.19622809 -0.049104676 -0.04172656 -0.042830702 -0.09420725 0.16016507
-0.026253346 -0.15479061 -0.15990914 -0.07432486 -0.07279904 0.12573843 0.16776551 0.022477161
0.05579064 -0.16765781 0.01310435 -0.012183867 -0.13449629 -0.06960576 0.29566774 0.14452001
-0.058693416 -0.004642338 0.12817101 0.010495791 0.05826429 -0.037734557 0.20152572 0.017551288
0.39964467 -0.035281036 -0.000529818 -0.13694899 -0.04941926 -0.043704692 0.061609976 -0.0064423075
0.033012927 -0.08153143 0.43013093 0.056856215 0.09749711 0.12847304 0.039408375 0.2946517
0.117649294 0.066356465 0.3330681 -0.021743659 -0.11263841 -0.0811595 -0.8950074 0.014605048
-0.020727236 0.121495984 0.08198765 -0.14762308 0.050901446 0.025204405 -0.0060758353 -0.0051929485
0.010001052 -0.11932443 0.0635098 0.15594965 0.11067813 0.17123777 -0.047458813 -0.047684662
0.049771614 0.06787818 -0.03886203 -0.13312514 0.13790625 0.16036513 0.09602291 -0.16995837
-0.20570235 0.053264484 -0.09148097 -0.029800268 -0.024496473 0.02128054 -0.00053764996 0.21606274
-0.08339394 0.1589744 0.037324797 -0.37162322 0.06562431 0.026610617 -0.0036103758 0.03926054
0.014990295 0.013963142 -0.026015885 0.005447266 -0.03887335 0.003345664 0.024725702 -0.109038904
-0.0076124887 -0.1253988 -0.28895682 0.039001174 -0.0276669 -0.0021339231 0.066514105 -0.03252357
-0.014534286 0.017261937 0.051584646 0.25679946 0.2812392 0.119739816 0.14247519 0.0838592
-0.02520535 -0.09882991 0.008945659 0.002892408 -0.095597 -0.11548204 -0.12075219 -0.050837863
0.10870317 0.16245282 0.0635311 -0.27234122 -0.01461887 -0.5119631 0.029126842 -0.07459184
0.0156071605 -0.09208741 -0.18643494 -0.117310874 -0.04340486 -0.029389312 0.078840025 0.13106364
-0.088063814 -0.040510796 0.1007988 0.064618364 0.34399307 0.0525066 -0.029698057 0.029509053
0.21203797 0.13626896 0.09552331 -0.0653564 0.07432135 0.15045719 0.108358376 0.12075991
0.046450973 0.0858726 -0.08381133 -0.044714037 -0.071732745 0.05692867 0.22247334 -0.053003393
-0.32033217 -0.07369216 -0.593507 -0.086999245 -0.064482614 0.0049905274 -0.04964993 0.116987094
-0.01846251 0.117742516 -0.05829563 -0.08343616 -0.007741639 0.11279212 -0.0017333684 0.11116522
0.08458949 0.07903911 -0.006516992 0.0072248294 0.004536928 0.09736429 0.019652389 0.04692015
-0.10593028 -0.09165061 0.07087552 -0.16220856 -0.04209368 0.12972236 0.17880893 -0.0042401734
-0.12867545 0.023799816 -0.2259755 -0.015490246 -0.05562162 -0.11063383 0.06244814 0.064888805
0.047546156 0.040034134 0.22356392 -0.07933511 -0.038538873 0.07193979 -0.094858676 -0.056581706
-0.040509194 0.10464788 0.015755616 0.011336259 0.040307246 -0.15998843 0.22155693 0.0044157184
-0.043357242 -0.07008764 -0.11272357 0.09181852 0.21930768 -0.061277833 -0.18696837 -0.10361254
00000000: 4108 1b3c 413d 143e 8cc3 17be b4c7 0dbe
00000010: a1b0 b5be 63b0 1dbd ce20 883d 810c da3d
00000020: da9c 493d ea00 f1bd bbe1 20be 7f7d 953d
00000030: cc47 c9bd 24c0 e4bd 31d3 b2bd c65d 93bd
00000040: 14d8 c53d d130 c33d 3826 0f3d f6b4 10bd
00000050: 5c57 9e3d c867 813e 1591 b6bd fce9 e1bd
00000060: e302 6dbe c79b 03be 04f0 483e fc21 49bd
00000070: 78e9 2abd 3f6f 2fbd bbef c0bd 5002 243e
00000080: 4211 d7bc 6e81 1ebe 39bf 23be a237 98bd
00000090: aa17 95bd 93c1 003e b9ca 2b3e 0622 b83c
000000a0: ba84 643d 7dae 2bbe a1b3 563c d89e 47bc
000000b0: 65b9 09be 778d 8ebd c361 973e 0efd 133e
000000c0: 8268 70bd c11e 98bb 433f 033e 8af6 2b3c
000000d0: 89a6 6e3d 8d8f 1abd c25c 4e3e b8c7 8f3c
000000e0: 3a9e cc3e d982 10bd 7ce3 0aba 5b3c 0cbe
000000f0: da6b 4abd b103 33bd be5a 7c3d fe19 d3bb
00000100: 9038 073d f3f9 a6bd 1f3a dc3e 10e2 683d
00000110: 91ac c73d 708e 033e ad6a 213d 96dc 963e
00000120: 1df2 f03d e6e5 873d e787 aa3e c21f b2bc
00000130: f7ae e6bd f436 a6bd 341f 65bf 034a 6f3c
00000140: 2acc a9bc e3d2 f83d 24e9 a73d 812a 17be
00000150: 097e 503d 7879 ce3c cd17 c7bb 9c29 aabb
00000160: 74db 233c 5e60 f4bd 6d11 823d 44b1 1f3e
00000170: 37ab e23d f458 2f3e 2c64 42bd fe50 43bd
00000180: 52dd 4b3d b703 8b3d cb2d 1fbd f551 08be
00000190: 4c37 0d3e c236 243e a9a7 c43d 9109 2ebe
000001a0: a3a3 52be dc2b 5a3d 605a bbbd b11f f4bc
000001b0: d4ac c8bc 8754 ae3c 14f1 0cba 8d3f 5d3e
000001c0: 71ca aabd 2fca 223e e3e1 183d 6645 bebe
000001d0: 0a66 863d 82fe d93c 0e9c 6cbb a9cf 203d
000001e0: db99 753c aac5 643c 441f d5bc fb7e b23b
000001f0: a939 1fbd ed42 5b3b 8e8d ca3c ca4f dfbd
00000200: 2f72 f9bb 8b68 00be 26f2 93be b2bf 1f3d
00000210: b2a5 e2bc 4ad9 0bbb 8c38 883d 6f37 05bd
00000220: 3721 6ebc e868 8d3c 6c4a 533d 387b 833e
00000230: 96fe 8f3e 263a f53d 04e5 113e 5fbe ab3d
00000240: 737b cebc 5667 cabd d090 123c 8e8e 3d3b
00000250: 5cc8 c3bd d981 ecbd ed4c f7bd 5d3b 50bd
00000260: c59f de3d 085a 263e 981c 823d 4f70 8bbe
00000270: fc83 6fbc 0410 03bf 6a9b ee3c 9bc3 98bd
00000280: 2db5 7f3c 5398 bcbd cde8 3ebe af40 f0bd
00000290: 4bc9 31bd dbc1 f0bc e176 a13d 8c35 063e
000002a0: cd5a b4bd a6ee 25bd 9a6f ce3d a256 843d
000002b0: dc1f b03e 2911 573d 5749 f3bc f8bc f13c
000002c0: 7b20 593e 178a 0b3e baa1 c33d 94d9 85bd
000002d0: cb35 983d 7311 1a3e ffea dd3d f950 f73d
000002e0: 6043 3e3d f9dd af3d 46a5 abbd 1126 37bd
000002f0: 9ee8 92bd 092e 693d 0dd0 633e 161a 59bd
00000300: 9402 a4be eaeb 96bd 13f0 17bf a92c b2bd
00000310: 760f 84bd 9487 a33b ba5d 4bbd ee96 ef3d
00000320: b13e 97bc fd22 f13d 66c7 6ebd 94e0 aabd
00000330: 93ad fdbb 8eff e63d 3132 e3ba 97aa e33d
00000340: 413d ad3d 42df a13d 7e8c d5bb 43be ec3b
00000350: 83aa 943b ee66 c73d 0cfe a03c 582f 403d
00000360: faf1 d8bd 51b3 bbbd 2f27 913d 001a 26be
00000370: 6c6a 2cbd f0d5 043e b019 373e 27f1 8abb
00000380: 7fc3 03be d5f7 c23c 1f66 67be cdca 7dbc
00000390: 7fd3 63bd fd93 e2bd 9fc9 7f3d 6ce4 843d
000003a0: c2bf 423d d5fa 233d f1ed 643e 727a a2bd
000003b0: f0da 1dbd 2b55 933d 4445 c2bd 38c2 67bd
000003c0: f8ec 25bd a151 d63d ec11 813c b7bb 393c
000003d0: 3619 253d 02d4 23be d2df 623e bbb1 903b
000003e0: 5d97 31bd 1c8a 8fbd 9ddb e6bd 590b bc3d
000003f0: 3192 603e 77fe 7abd a374 3fbe d032 d4bd

model.0.bias f4 [64]
0.13245152 0.017816562 -0.077939935 -0.022445282 0.18410662 -0.015041357 -0.05929024 0.059313286
-0.042143993 -0.17947614 0.2229972 0.15660916 0.08888713 0.17636353 0.03409192 -0.06939272
0.094624296 0.038862187 0.06842491 -0.15130319 -0.07326839 0.043996383 0.02883963 -0.06578132
-0.06669114 0.18226993 0.027386716 -0.081639305 0.25104207 0.11854397 -0.026573256 -0.13487777
0.13603412 -0.03979924 -0.07665986 0.13922654 -0.05173793 0.11198208 -0.047611516 -0.09811661
-0.06541509 0.036027443 -0.091207094 0.23208147 0.06161437 -0.076877706 0.074472986 -0.08066064
-0.12746805 0.1162641 -0.1120334 0.1629038 -0.047221776 -0.036371008 -0.1605084 0.014755099
0.15195324 0.049191315 -0.09394985 -0.09307935 9.10888e-05 0.04999762 0.032977823 0.15003988
00000000: 5fa1 073e 0af4 913c f99e 9fbd 2bdf b7bc
00000010: 7286 3c3e 0670 76bc 53da 72bd 7df2 723d
00000020: 2e9f 2cbd 98c8 37be 6159 643e 275e 203e
00000030: 750a b63d a498 343e f8a3 0b3d c51d 8ebd
00000040: 62ca c13d f52d 1f3d 5c22 8c3d 39ef 1abe
00000050: bd0d 96bd 8d35 343d 1641 ec3c 5bb8 86bd
00000060: 5d95 88bd f8a4 3a3e 1b5a e03c 8232 a7bd
00000070: 9688 803e 2ec7 f23d 28b0 d9bc 661d 0abe
00000080: 874c 0b3e 8704 23bd d8ff 9cbd 6791 0e3e
00000090: 27eb 53bd dc56 e53d 4b04 43bd 5cf1 c8bd
000000a0: 59f8 85bd 8391 133d c9ca babd c4a6 6d3e
000000b0: 5a5f 7c3d 0f72 9dbd 4b85 983d 6831 a5bd
000000c0: fc86 02be df1b ee3d c471 e5bd 41d0 263e
000000d0: 9f6b 41bd c4f9 14bd 505c 24be 5fbf 713c
000000e0: a199 1b3e d57c 493d c768 c0bd 63a0 bebd
000000f0: ed06 bf38 4eca 4c3d c113 073d 0ea4 193e

model.2.weight f4 [128, 64]
0.032114338 0.02900697 0.12342238 0.24257296 0.17388858 -0.037763838 -0.0756662 -0.03988212
0.09450773 0.13360184 -0.02195504 -0.103099175 -0.1313077 0.16024551 -0.1883271 -0.041902315
-0.090732664 -0.016720582 -0.04416245 0.13420996 -0.08038559 -0.0110097155 0.14377463 -0.03340154
-0.1184006 -0.07296214 0.13192517 0.009228553 -0.02970928 0.057619087 0.016176363 0.002153621
0.06917198 0.08261412 0.0007829556 0.08030591 -0.06882386 0.11767581 0.12946004 -0.17006402
-0.055182606 -0.0018149703 0.09825531 -0.15485293 0.12059836 -0.032307807 -0.09723679 0.14173003
0.003998989 0.032676894 -0.071586326 -0.013583116 -0.1028662 -0.0033312016 0.018485269 -0.09822489
-0.07076136 -0.05384789 -0.18527602 0.059479255 0.07130168 0.15988411 -0.22763072 -0.022841362
0.044734698 0.10358994 -0.028588874 0.037858758 0.08490662 0.08598515 -0.060379248 0.0506002
-0.056919005 -0.08725673 0.0076540085 0.14713946 -0.011772443 0.09842272 -0.089193575 -0.0015382083
0.07195438 0.045902517 -0.05391816 0.015866056 0.04264612 -0.18432063 -0.030001367 -0.1532449
0.017626157 0.051444408 -0.12045118 -0.043970015 0.11322784 -0.16467096 -0.010903892 -0.052054476
-0.06869339 0.18974222 0.09735166 -0.01779374 0.036621418 0.056463033 0.038858693 -0.14094745
0.0062886626 0.07746288 0.013290344 -0.087352365 -0.14887145 -0.11391137 -0.12415703 -0.025670424
-0.09277818 0.010136113 -0.02617637 0.12182085 -0.11108043 -0.03865552 0.11540474 0.010122446
-0.09909774 0.03463262 0.17133988 0.11012111 -0.12773718 0.027521811 -0.071246125 -0.04923465
-0.14558947 -0.034337927 0.12789112 0.0076714577 0.061937947 0.06944112 0.04315649 0.0069807153
0.068011776 0.011103118 -0.0086886175 0.056285907 0.028691502 0.09126578 0.069076784 0.013868062
-0.1949556 0.06513896 0.07314169 -0.012768147 -0.042834368 0.105471656 -0.09798296 0.01556414
-0.034629617 0.07120515 0.24714965 0.22307132 0.0051048184 -0.11139505 0.06708726 0.05299864
-0.10339137 -0.06778041 -0.22655639 0.047592342 0.1453258 0.14017926 0.043355256 0.007186321
0.036001734 0.05541959 0.03355329 -0.16005391 -0.056034494 0.06385729 -0.0019544917 -0.10372787
0.04129115 -0.07796102 -0.06399507 0.06760791 -0.049432736 -0.17168237 0.07482666 -0.14662042
0.0010523183 -0.14525019 0.1387527 0.0687409 -0.07786027 0.17387936 0.11739948 0.08697894
-0.050349258 -0.12719142 0.14930253 -0.011338929 0.006848235 -0.009147894 0.043618076 -0.11618307
-0.16367704 -0.016457818 -0.02693374 0.033207566 -0.042608723 0.0520575 -0.18662387 -0.11890684
-0.06267032 0.007193912 -0.024504727 -0.035984375 0.00012690831 0.062477287 0.025456117 0.0750119
0.077645265 -0.011140692 0.18459284 0.028836489 0.15045846 -0.07849922 0.07683511 -0.066363424
-0.0066966033 -0.06587268 0.092603296 0.082177565 -0.0452933 0.12033911 0.12115059 0.072760716
0.0009726843 0.08848104 -0.010925629 -0.014581621 0.052869644 0.033583306 -0.032415077 0.070638314
0.13393897 0.082964025 -0.024243148 0.05272418 0.023145664 0.03720376 0.11386498 0.09169193
-0.13500431 -0.1762447 -0.06177419 0.122915715 -0.10937779 0.03784413 -0.16523995 -0.07406263
00000000: 538a 033d 06a0 ed3c dfc4 fc3d 0c65 783e
00000010: d90f 323e 41ae 1abd e1f6 9abd 6f5b 23bd
00000020: 458d c13d ecce 083e 0edb b3bc a925 d3bd
00000030: 8775 06be 6617 243e d2d8 40be c3a1 2bbd
00000040: 0cd2 b9bd 9af9 88bc afe3 34bd 566e 093e
00000050: 33a1 a4bd 1862 34bc a839 133e 0ed0 08bd
00000060: 047c f2bd 2d6d 95bd 6417 073e 5b33 173c
00000070: e060 f3bc fe01 6c3d 4b84 843c c423 0d3b
00000080: 0aaa 8d3d 9731 a93d 433f 4d3a 6d77 a43d
00000090: 86f3 8cbd 0400 f13d 2c91 043e 4325 2ebe
000000a0: 2807 62bd 4ce4 edba 143a c93d c491 1ebe
000000b0: 46fc f63d 3155 04bd 1524 c7bd ad21 113e
000000c0: f309 833b 35d8 053d da9b 92bd b88b 5ebc
000000d0: 84ab d2bd 4a50 5abb 6b6e 973c 222a c9bd
000000e0: 55eb 90bd 9b8f 5cbd ffb8 3dbe 85a0 733d
000000f0: 9d06 923d a9b8 233e 0718 69be cf1d bbbc
00000100: bb3b 373d f626 d43d 3733 eabc c911 1b3d
00000110: 86e3 ad3d fb18 b03d 3b50 77bd 2842 4f3d
00000120: e723 69bd a8b3 b2bd 7ace fa3b baab 163e
00000130: 34e1 40bc da91 c93d 1fab b6bd b59d c9ba
00000140: d15c 933d 4704 3c3d 4ad9 5cbd 88f9 813c
00000150: b3ad 2e3d 8cbe 3cbe 6dc5 f5bc 3bec 1cbe
00000160: bb64 903c 5fb7 523d 1caf f6bd e719 34bd
00000170: ffe3 e73d 819f 28be 3da6 32bc 1337 55bd
00000180: 1faf 8cbd c94b 423e 4f60 c73d 2dc4 91bc
00000190: 5700 163d c845 673d 4b2a 1f3d 8754 10be
000001a0: 2011 ce3b dca4 9e3d bebf 593c cce5 b2bd
000001b0: c271 18be 5d4a e9bd 0a46 febd c84a d2bc
000001c0: 7d02 bebd f011 263c d46f d6bc 367d f93d
000001d0: 237e e3bd 4055 1ebd 5259 ec3d 9ed8 253c
000001e0: c2f3 cabd efda 0d3d b973 2f3e 2d87 e13d
000001f0: 89cd 02be 6c75 e13c 7de9 91bd 46aa 49bd
00000200: 6815 15be eda5 0cbd e4f5 023e da60 fb3b
00000210: a5b2 7d3d 2537 8e3d dcc4 303d 7cbe e43b
00000220: c249 8b3d dae9 353c b45a 0ebc 0d8c 663d
00000230: 710a eb3c 8ee9 ba3d 2178 8d3d de36 633c
00000240: 71a2 47be 9367 853d 4fcb 953d 7d31 51bc
00000250: 1773 2fbd 8601 d83d 4aab c8bd bc00 7f3c
00000260: c9d7 0dbd 01d4 913d cc14 7d3e cf6c 643e
00000270: 5246 a73b 1723 e4bd 0c65 893d 1a15 593d
00000280: dbbe d3bd 75d0 8abd 66fe 67be 30f0 423d
00000290: 49d0 143e 278b 0f3e 4895 313d 3b7b eb3b
000002a0: 8e76 133d a7ff 623d 2d6f 093d 2ce5 23be
000002b0: 6d84 65bd 9cc7 823d ee16 00bb 476f d4bd
000002c0: e920 293d 07aa 9fbd d90f 83bd 0476 8a3d
000002d0: fb79 4abd 81cd 2fbe b83e 993d aa23 16be
000002e0: f1ed 893a 77bc 14be 3015 0e3e 07c8 8c3d
000002f0: 3575 9fbd 6e0d 323e 236f f03d 0422 b23d
00000300: 063b 4ebd 783e 02be c3e2 183e eac6 39bc
00000310: 2967 e03b 0ce1 15bc dea8 323d 64f1 edbd
00000320: f49a 27be 8cd2 86bc 26a4 dcbc a804 083d
00000330: 7c86 2ebd 3f3a 553d 541a 3fbe 6e85 f3bd
00000340: 4c59 80bd e8ba eb3b 23be c8bc 5a64 13bd
00000350: b112 0539 2fe8 7f3d 5989 d03c d79f 993d
00000360: 7b04 9f3d 7387 36bc e805 3d3e 803a ec3c
00000370: c811 1a3e 33c4 a0bd ba5b 9d3d 8ce9 87bd
00000380: 2e6f dbbb 41e8 86bd cca6 bd3d b64c a83d
00000390: 7885 39bd 5a74 f63d cd1d f83d 9203 953d
000003a0: bdfb 7e3a 8c35 b53d 6901 33bc c0e7 6ebc
000003b0: d78d 583d a68e 093d acc5 04bd d2aa 903d
000003c0: 4c27 093e 0be9 a93d 9199 c6bc 4ff5 573d
000003d0: fa9b bd3c f862 183d 0b32 e93d fbc8 bb3d
000003e0: 923e 0abe 7e79 34be ef06 7dbd 3cbb fb3d
000003f0: 7601 e0bd 7202 1b3d a934 29be 26ae 97bd

model.2.bias f4 [128]
0.03398853 0.016116315 0.04757177 -0.05447931 0.1512842 0.18222216 0.110991284 0.11327956
0.10012471 0.23110381 -0.035039462 -0.067951955 -0.030371804 -0.100436874 0.064939976 -0.14824465
0.056662943 0.055130832 0.19998775 -0.009569976 0.09723517 0.015295891 0.012499967 -0.0011861607
-0.07244201 -0.06608051 0.04927347 0.16154046 0.12871116 0.19749409 0.10187893 0.10408913
-0.052392736 0.19925418 0.14865406 0.049563155 -0.08365579 -0.044047005 -0.1093187 -0.13011387
0.065691605 0.20304677 0.055893764 0.15745455 -0.024626248 0.17739214 0.0051220246 -0.06812012
-0.058787793 -0.089305766 0.20860212 -0.12312057 0.06035103 -0.015436636 0.1334181 0.22118226
-0.052722078 -0.033651557 0.08171775 -0.04705814 0.08363584 0.11307429 0.027132988 0.14951614
-0.010123423 0.013043488 0.13186818 -0.046770815 0.124916136 0.2094398 -0.15209413 0.16760497
-0.0104367705 0.15282753 0.02971335 0.034837656 0.21498545 0.005812861 0.04184762 0.010968479
-0.20073971 0.18608806 -0.06662563 0.15184636 0.12932453 0.18418063 0.1142464 -0.012365335
-0.082179315 0.013268788 -0.015850538 0.12922774 0.04866467 0.048162136 -0.16235635 -0.19203866
-0.022676554 0.19874199 0.20382673 -0.11204579 -0.1446094 0.17212205 0.060074795 -0.02101515
-0.05757913 0.117857 0.19833477 -0.022024719 -0.11106966 -0.10089633 -0.03397624 -0.0625203
-0.08642676 0.19302964 -0.033025663 0.1595682 -0.13711238 0.08830442 0.16489306 0.122011304
0.029601026 -0.0495791 0.27277344 -0.015189733 -0.0516266 0.040010214 -0.019382633 0.072515726
00000000: 8f37 0b3d 5d06 843c 9eda 423d b225 5fbd
00000010: 3fea 1a3e 7298 3a3e 664f e33d 1dff e73d
00000020: 2f0e cd3d 7aa6 6c3e 8a85 0fbd 652a 8bbd
00000030: 4ace f8bc d9b1 cdbd 40ff 843d 72cd 17be
00000040: 6717 683d ded0 613d 97c9 4c3e 63cb 1cbc
00000050: 3c23 c73d 9e9b 7a3c a9cc 4c3c f378 9bba
00000060: 7a5c 94bd 3855 87bd fad2 493d dd6a 253e
00000070: dccc 033e e43b 4a3e e7a5 d03d af2c d53d
00000080: c499 56bd 4a09 4c3e c538 183e bc02 4b3d
00000090: ba53 abbd a26a 34bd 7ce2 dfbd 923c 05be
000000a0: 5289 863d 7eeb 4f3e dcf0 643d c43b 213e
000000b0: fcbc c9bc 49a6 353e a8d6 a73b 9082 8bbd
000000c0: 78cb 70bd f1e5 b6bd cb9b 553e a326 fcbd
000000d0: a432 773d f2e9 7cbc c19e 083e 9a7d 623e
000000e0: 1bf3 57bd 37d6 09bd a35b a73d 09c0 40bd
000000f0: 4449 ab3d 7e93 e73d 0046 de3c c21a 193e
00000100: b7dc 25bc 5bb4 553c 7408 073e c192 3fbd
00000110: 08d4 ff3d 6377 563e 90be 1bbe a3a0 2b3e
00000120: fdfe 2abc d27e 1c3e 6969 f33c eeb1 0e3d
00000130: 2525 5c3e d079 be3b 6968 2b3d 23b5 333c
00000140: b68e 4dbe de8d 3e3e 0573 88bd 9d7d 1b3e
00000150: a66d 043e d999 3c3e 04fa e93d f997 4abc
00000160: a14d a8bd 5565 593c fdd8 81bc 4754 043e
00000170: 9b54 473d a945 453d be40 26be c8a5 44be
00000180: 2ec4 b9bc 0583 4b3e f4b7 503e 4378 e5bd
00000190: 7d14 14be c340 303e fd10 763d f727 acbc
000001a0: 18d8 6bbd 035f f13d 4518 4b3e 2f6d b4bc
000001b0: 7d78 e3bd bca2 cebd ab2a 0bbd a50a 80bd
000001c0: 8300 b1bd 90a9 453e eb45 07bd d965 233e
000001d0: 3067 0cbe f3d8 b43d bad9 283e 10e1 f93d
000001e0: da7d f23c 7413 4bbd f6a8 8b3e 5cde 78bc
000001f0: 6a76 53bd c0e1 233d 54c8 9ebc 2083 943d

model.4.weight f4 [128, 128]
-0.12710868 -0.1618925 0.071047604 0.10815126 -0.2408368 -0.013154553 -0.011942136 -0.026340323
0.13619675 0.06758436 0.02669791 0.090456404 -0.013430232 -0.0817718 0.008378428 -0.030162198
0.082603335 -0.089648955 0.0036997336 0.04592017 0.04569449 0.035146147 -0.04161169 0.07298445
0.0064823967 0.07889718 0.08262195 -0.012499498 0.30016834 0.03498311 -0.05302496 -0.071676955
0.016344229 -0.11473601 0.068587035 0.06925405 -0.13808666 0.05638181 0.038706668 0.090420924
-0.122661926 0.06989327 -0.05817129 -0.056795765 0.09932694 0.04504454 -0.23643547 0.5341
-0.06405998 -0.06721659 0.011679326 -0.076523036 -0.0016807677 0.008802968 0.02047698 0.04382466
0.03663354 -0.031167129 0.0036270658 -0.013851173 -0.13503186 0.08520127 -0.04855547 -0.07804222
0.06618156 0.0028861025 -0.09278807 -0.066205174 0.011565423 -0.11956968 0.05072369 0.08320079
0.09245046 -0.06352431 0.104457565 0.014876638 -0.0677317 -0.048015773 -0.11153343 0.085918054
0.021472195 -0.0024054043 0.04920266 -0.05139727 -0.03865987 -0.07444081 0.07305529 -0.15013178
-0.062427662 0.009767933 -0.14041959 -0.035052773 0.04320456 0.05963882 -0.022797897 0.0034404274
0.045825407 -0.020031508 -0.053138644 0.05900059 -0.023424368 0.07545912 0.1984522 0.022997975
0.016315652 0.17197797 -0.06195987 -0.027792357 -0.037470065 -0.024103954 -0.08474684 -0.015426819
0.013652163 0.008869978 0.06121466 0.046885166 0.0039241365 0.021118367 0.03834473 -0.08764636
0.08021251 -0.09248385 0.059689462 0.11917035 -0.14522745 0.07344783 -0.109124154 -0.023458445
0.048690617 0.03883647 0.08660823 0.051870357 -0.043794934 0.012021788 -0.013774702 -0.017263757
-0.028196968 0.12561171 0.06360242 -0.049916286 0.13565284 -0.051815227 -0.16184653 0.029133605
-0.09822561 0.11166022 0.13736804 0.08500482 0.08684849 -0.019626377 0.0031184235 0.0228493
-0.035200424 0.061173417 -0.046103206 0.073350124 0.11679142 0.03465848 -0.022309281 0.042488124
0.14546934 0.07177321 0.057710566 0.11736013 0.13707504 -0.08608701 -0.08254957 -0.06637017
-0.04349335 0.009752415 0.014737505 0.1103949 0.016401168 0.05565964 0.023047606 0.05903373
0.11617856 0.0026642447 0.005020937 -0.000334011 -0.01102048 0.06948607 0.11078757 0.15787849
0.08779371 -0.07488791 0.022547966 0.03364791 0.0027458153 0.058845934 0.11635368 0.10763274
0.19588089 0.08735277 0.06405878 0.117650285 -0.027599696 0.0003388992 -0.088892244 0.11534191
0.029234374 0.096444204 0.004365492 0.10535974 -0.016526548 0.06806529 -0.085611306 0.0019271445
-0.06701456 0.048652176 -0.060466256 0.019421758 0.10902218 0.062805824 0.08415768 -0.17660208
0.023469016 0.10821432 0.041186012 -0.07310871 -0.11861187 -0.14579271 -0.023121098 -0.057618428
-0.017393528 0.080148205 0.12362216 -0.060351893 0.066069536 -0.08500115 -0.064981885 0.085823715
-0.020218117 -0.13294205 -0.026831007 0.06851241 -0.025290852 -0.018207146 0.039829526 0.046459578
0.068654716 0.065804824 -0.012680904 0.08361669 -0.007467105 -0.022049557 -0.062244568 0.06954433
0.05190844 -0.040033102 0.13958961 0.05730267 -0.05486414 0.023705158 -0.02603306 0.009497585
00000000: c728 02be 26c7 25be 6881 913d 687e dd3d
00000010: ec9d 76be 3286 57bc f3a8 43bc a9c7 d7bc
00000020: 2977 0b3e ab69 8a3d 93b5 da3c 3541 b93d
00000030: 7a0a 5cbc f977 a7bd ad45 093c b716 f7bc
00000040: f02b a93d df99 b7bd 3b77 723b ca16 3c3d
00000050: 252a 3b3d 68f5 0f3d 0571 2abd df78 953d
00000060: 496a d43b d894 a13d b235 a93d b2ca 4cbc
00000070: aaaf 993e 734a 0f3d b330 59bd 5ecb 92bd
00000080: 55e4 853c b7fa eabd 5c77 8c3d 11d5 8d3d
00000090: 9766 0dbe 9df0 663d e28a 1e3d 9b2e b93d
000000a0: 2d36 fbbd 3424 8f3d 0545 6ebd ada2 68bd
000000b0: ec6b cb3d a080 383d 241c 72be c7ba 083f
000000c0: e131 83bd daa8 89bd a55a 3f3c 1cb8 9cbd
000000d0: 354d dcba 533a 103c 57bf a73c 7d81 333d
000000e0: 0d0d 163d 3552 ffbc 11b4 6d3b 08f0 62bc
000000f0: cb45 0abe 017e ae3d 1ae2 46bd 99d4 9fbd
00000100: 338a 873d c424 3d3b ac07 bebd 9496 87bd
00000110: e67c 3d3c f3e0 f4bd a5c3 4f3d 2d65 aa3d
00000120: ab56 bd3d 0919 82bd d9ed d53d 24bd 733c
00000130: ebb6 8abd 30ac 44bd a46b e4bd cef5 af3d
00000140: 75e6 af3c fda3 1dbb ba88 493d f285 52bd
00000150: d059 1ebd 6c74 98bd 039e 953d 25bc 19be
00000160: 26b4 7fbd ae09 203c 27ca 0fbe 7f93 0fbd
00000170: 44f7 303d d647 743d a8c2 babc cb78 613b
00000180: 6cb3 3b3d 1e19 a4bc e8a7 59bd 9aaa 713d
00000190: 76e4 bfbc 508a 9a3d 0e37 4b3e 4066 bc3c
000001a0: 67a8 853c fe1a 303e a2c9 7dbd ccac e3bc
000001b0: 367a 19bd a875 c5bc c08f adbd c5c0 7cbc
000001c0: 52ad 5f3c 6253 113c 39bc 7a3d a90a 403d
000001d0: 0b96 803b 6d00 ad3c 5d0f 1d3d ef7f b3bd
000001e0: 7546 a43d 2c68 bdbd f07c 743d 960f f43d
000001f0: 81b6 14be d16b 963d 7c7c dfbd ed2b c0bc
00000200: d06f 473d fe12 1f3d a85f b13d 0376 543d
00000210: 5162 33bd 09f7 443c 4aaf 61bc b96c 8dbc
00000220: 54fd e6bc 5ba0 003e fc41 823d 0575 4cbd
00000230: 94e8 0a3e 343c 54bd 19bb 25be 99a9 ee3c
00000240: 822a c9bd 1dae e43d 35aa 0c3e 0217 ae3d
00000250: 9fdd b13d 7fc7 a0bc 775e 4c3b 752e bb3c
00000260: 522e 10bd fa90 7a3d b7d6 3cbd 9738 963d
00000270: 5730 ef3d 0df6 0d3d f4c1 b6bc 0708 2e3d
00000280: eaf5 143e d5fd 923d ea61 6c3d 825a f03d
00000290: 665d 0c3e 634e b0bd c00f a9bd 15ed 87bd
000002a0: 1526 32bd 98c8 1f3c 9375 713c b916 e23d
000002b0: be5b 863c 5dfb 633d 55ce bc3c 5acd 713d
000002c0: 06ef ed3d 9c9a 2e3b ac86 a43b 331e afb9
000002d0: 3e8f 34bc b64e 8e3d 98e4 e23d e6aa 213e
000002e0: 30cd b33d d55e 99bd 83b6 b83c 64d2 093d
000002f0: 23f3 333b 6f08 713d d74a ee3d 8e6e dc3d
00000300: 0095 483e 02e6 b23d 4031 833d a2f2 f03d
00000310: c218 e2bc 48ae b139 230d b6bd 6138 ec3d
00000320: ed7c ef3c 8a84 c53d 670c 8f3b d9c6 d73d
00000330: af62 87bc d165 8b3d fb54 afbd 3d98 fc3a
00000340: ee3e 89bd 8147 473d 77ab 77bd 611a 9f3c
00000350: 0547 df3d 57a0 803d dd5a ac3d 2dd7 34be
00000360: 1842 c03c 789f dd3d aab2 283d 05ba 95bd
00000370: c8ea f2bd af4a 15be 7568 bdbc 4d01 6cbd
00000380: df7c 8ebc be24 a43d 9d2d fd3d 8c33 77bd
00000390: 774f 873d 1515 aebd 3915 85bd 58c4 af3d
000003a0: 77a0 a5bc f621 08be b3cc dbbc 3c50 8c3d
000003b0: c32e cfbc 2727 95bc 4924 233d 664c 3e3d
000003c0: d89a 8c3d aec4 863d 91c3 4fbc 3a3f ab3d
000003d0: 9eae f4bb 46a1 b4bc 29f4 7ebd 426d 8e3d
000003e0: f29d 543d c0f9 23bd 94f0 0e3e 34b6 6a3d
000003f0: 38b9 60bd 5231 c23c 4943 d5bc c29b 1b3c

model.4.bias f4 [128]
0.075494245 0.10814125 0.19744498 -0.063629165 0.20203541 -0.028922694 0.086438015 0.2184259
-0.03356337 0.0511292 0.06975972 -0.0118306205 0.01833694 -0.011120781 -0.0916084 0.09519638
-0.037219726 -0.01788971 0.113631174 0.03280846 0.04749856 0.06121306 0.1770292 0.17552659
0.08017883 -0.09913174 0.07074092 -0.093995936 0.18035227 0.17930634 -0.13631557 -0.12560706
0.13001229 0.05398882 0.010695799 -0.0050574224 -0.06531219 0.038660128 0.07907692 0.14138256
-0.015200608 0.2384683 0.08806539 0.12060048 0.22267497 0.004419939 0.017281419 -0.044276986
-0.14201187 0.03760064 0.08957099 0.10095391 0.0027763778 0.1250166 0.027454013 -0.16555195
0.2306285 0.13425073 0.09769962 -0.005512951 0.053759903 0.25198185 0.1807463 0.08356714
0.12977146 0.02625888 -0.023492932 -0.027312852 0.00179516 0.006102559 0.15770926 0.03817926
-0.15098077 -0.0066490155 0.10207957 0.25036252 0.102825806 -0.0689496 0.054425664 0.18738241
0.07551217 0.08655477 0.23589621 0.110400245 0.20060189 -0.039010763 -0.013944451 0.0818812
0.1883656 0.22978377 0.17995647 -0.07644596 -0.07762163 -0.02734824 0.040963545 -0.047355425
-0.003973253 -0.07359665 0.03639562 -0.028631648 0.037646603 0.12360721 0.06686856 0.11711238
0.1982816 -0.0952322 -0.04495994 0.005130848 0.03153228 0.06955512 -0.0881146 0.018111054
-0.08051272 -0.040383667 -0.038556773 -0.07552939 0.10674606 -0.074772134 0.18132381 0.049021147
0.0022637222 0.017808069 -0.15465799 -0.033759285 -0.07757289 -0.0552614 0.20554051 0.15418652
00000000: ba9c 9a3d 2979 dd3d 042f 4a3e 0250 82bd
00000010: 5fe2 4e3e 49ef ecbc 6a06 b13d 0aab 5f3e
00000020: bf79 09bd da6c 513d 2fde 8e3d 38d5 41bc
00000030: 5a37 963c f033 36bc 2f9d bbbd 52f6 c23d
00000040: b673 18bd 718d 92bc 76b7 e83d 2a62 063d
00000050: da8d 423d 8cba 7a3d 2547 353e 3ebd 333e
00000060: cc34 a43d 9505 cbbd 9ee0 903d f180 c0bd
00000070: 44ae 383e 159c 373e 4f96 0bbe 239f 00be
00000080: f121 053e 6223 5d3d 6f3d 2f3c bcb8 a5bb
00000090: 66c2 85bd 155a 1e3d 15f3 a13d 97c6 103e
000000a0: f90b 79bc 0931 743e a15b b43d 62fd f63d
000000b0: e804 643e 23d5 903b c391 8d3c c95b 35bd
000000c0: 8f6b 11be 2103 1a3d ff70 b73d ecc0 ce3d
000000d0: e4f3 353b 5a04 003e 3de7 e03c 7386 29be
000000e0: e129 6c3e 0679 093e bd16 c83d fca5 b4bb
000000f0: 5833 5c3d c403 813e 8f15 393e 4025 ab3d
00000100: cfe2 043e dd1c d73c 4074 c0bc 34bf dfbc
00000110: 934b eb3a faf7 c73b 897e 213e db61 1c3d
00000120: b49a 1abe fcdf d9bb 180f d13d 842f 803e
00000130: 5696 d23d 7335 8dbd 72ed 5e3d 2de1 3f3e
00000140: 20a6 9a3d a143 b13d c78e 713e 8619 e23d
00000150: 956a 4d3e c0c9 1fbd 4477 64bc 55b1 a73d
00000160: e9e2 403e 704c 6b3e 8246 383e b38f 9cbd
00000170: 17f8 9ebd 6b09 e0bc 64c9 273d c3f7 41bd
00000180: 1032 82bb d7b9 96bd 9313 153d eb8c eabc
00000190: 5333 1a3d c725 fd3d 62f2 883d 9ed8 ef3d
000001a0: 550a 4b3e 1a09 c3bd ea27 38bd ac20 a83b
000001b0: fe27 013d ea72 8e3d 6d75 b4bd a25d 943c
000001c0: dae3 a4bd 5869 25bd b5ed 1dbd 27af 9abd
000001d0: ae9d da3d 2222 99bd f3ac 393e 66ca 483d
000001e0: f55a 143b 3ae2 913c aa5e 1ebe 2d47 0abd
000001f0: 89de 9ebd c759 62bd 3679 523e 12e3 1d3e

model.6.weight f4 [4, 128]
0.095676824 0.102159634 0.06533345 -0.085117824 0.11655347 0.076097794 -0.18078859 0.104811914
-0.30248985 0.10814097 0.039679963 -0.045130905 0.079728894 -0.13194762 -0.08706883 0.05967609
0.0514536 0.26477417 0.09623783 0.103087604 0.42359367 0.055569872 0.12136783 0.04480863
0.09836287 -0.0590726 0.33706346 0.048015043 0.09750413 0.06205597 -0.10543695 -0.17074697
0.08016533 0.0973125 -0.026581654 0.21079284 0.062616505 0.11392158 0.27728856 0.10376638
0.026755463 0.12552701 -0.0057824687 0.13587452 0.065644614 0.036714315 0.07996981 -0.14997523
-0.05895584 -0.15859796 0.1592909 0.38464788 -0.21590824 0.2818799 -0.05973959 -0.077027954
0.07228007 0.24699982 -0.273497 0.08173537 -0.4373298 0.07449731 0.1218967 0.017570555
0.14924537 0.020971613 -0.01613832 0.25246814 -0.12609012 0.36032224 0.1836615 0.31092983
-0.077636965 -0.044985007 0.096175276 0.10991164 -0.113586985 -0.12545589 -0.050025955 0.12515196
0.05542069 0.19554487 0.20350109 0.074747466 0.081905 0.031367283 0.092442244 -0.13541876
0.049031984 0.08770434 0.024207387 -0.051924296 -0.017683135 -0.47654307 0.18465672 -0.15859108
-0.14592014 0.038512595 -0.42385155 0.12688006 0.124156624 0.11413529 -0.0046477434 0.12656212
0.107080646 -0.10112019 -0.27653113 0.19706328 0.09566316 0.43944055 -0.030313881 -0.039197095
0.0090388 0.27587 -0.043428008 -0.074210525 0.153636 0.09567921 0.12324286 -0.09820056
-0.22042534 -0.032520488 -0.119335525 0.10745148 -0.08804099 -0.15299374 0.063323 0.13226637
0.15157133 0.059945557 0.035065223 -0.024879336 -0.0049233637 -0.008868615 0.1735014 0.14932163
0.08117582 -0.022443753 0.118653014 -0.09528632 0.0957345 -0.2031993 -0.038462028 0.11291487
-0.028334334 -0.032866012 0.04170095 0.24277365 0.22459222 -0.12555608 0.11367923 0.13534242
0.034326315 0.044452332 0.08871242 -0.10265816 0.05384686 0.19928236 -0.07768318 -0.22815818
0.05894045 0.27026674 -0.07241373 -0.06554892 0.0014507669 0.095840335 -0.025283203 0.010865415
-0.037951633 0.10047955 0.19916508 0.124308035 0.10331093 0.031500373 0.19404607 -0.07046057
-0.14239089 -0.032303754 0.12398727 0.27508026 -0.219655 0.30719677 0.21398251 -0.05336159
0.025284568 0.10369255 -0.09374973 -0.21864277 -0.18850179 0.10270917 -0.008515489 -0.18813068
0.061316416 0.11020872 0.12828447 0.0070306873 0.13456327 0.023528956 0.16424617 0.05310592
-0.08566055 -0.066796854 0.026076976 0.04366509 0.06946076 -0.044551674 -0.14605652 0.1660369
0.22120342 0.008938987 0.15203454 0.08611787 0.1310435 0.04539021 0.10185931 0.08951718
0.14857073 0.018184839 0.10712997 -0.049249306 -0.035379045 0.026756998 0.13376403 -0.019213622
-0.08661642 0.16959362 0.108923204 0.06491563 0.10772627 0.059161182 0.067792065 0.018686732
0.06849073 -0.029100891 -0.11835067 -0.0418931 0.26239988 -0.2092575 -0.07782444 -0.09836793
0.065625735 -0.031416908 0.008455898 -0.031971604 0.1678964 0.0492062 0.081235915 0.10954139
0.035646286 -0.04823083 -0.108207665 0.05421271 0.053438857 -0.0038975019 0.059373558 0.124100514
00000000: 36f2 c33d 1239 d13d 8bcd 853d 4152 aebd
00000010: 96b3 ee3d 29d9 9b3d a520 39be a1a7 d63d
00000020: f3df 9abe 0379 dd3d 7587 223d 2fdb 38bd
00000030: e748 a33d 471d 07be 2551 b2bd ea6e 743d
00000040: 03c1 523d 7b90 873e 5718 c53d 981f d33d
00000050: 45e1 d83e 3c9d 633d b28f f83d 4189 373d
00000060: 7972 c93d 1cf6 71bd 9593 ac3e 6cab 443d
00000070: 3fb0 c73d 672e 7e3d 54ef d7bd 4bd8 2ebe
00000080: b82d a43d c74b c73d c5c1 d9bc 14da 573e
00000090: 153d 803d b84f e93d c4f8 8d3e 7883 d43d
000000a0: 462e db3c 278a 003e dd7a bdbb b122 0b3e
000000b0: af70 863d c061 163d 36c7 a33d 1b93 19be
000000c0: ae7b 71bd 8167 22be 271d 233e 91f0 c43e
000000d0: 0d17 5dbe 9052 903e 80b1 74bd d5c0 9dbd
000000e0: 9307 943d 85ed 7c3e cc07 8cbe e064 a73d
000000f0: b1e9 dfbe 0c92 983d faa4 f93d 20f0 8f3c
00000100: c7d3 183e a9cc ab3c 8334 84bc 8143 813e
00000110: c51d 01be 287c b83e c311 3c3e 3232 9f3e
00000120: 2100 9fbd 3342 38bd 8bf7 c43d 5b19 e13d
00000130: 4ba0 e8bd 8277 00be 04e8 4cbd d627 003e
00000140: ce00 633d ea3c 483e 9762 503e 3315 993d
00000150: cfbd a73d fb7a 003d 5c52 bd3d 37ab 0abe
00000160: c3d5 483d 559e b33d 924e c63c 92ae 54bd
00000170: 39dc 90bc 74fd f3be a716 3d3e b365 22be
00000180: 176c 15be 62bf 1d3d 1203 d9be d9ec 013e
00000190: d445 fe3d c3bf e93d 194c 98bb 8099 013e
000001a0: 194d db3d 1a18 cfbd 7d95 8dbe f5ca 493e
000001b0: 0ceb c33d 5afe e03e d154 f8bc 228d 20bd
000001c0: 7a17 143c d53e 8d3e 91e1 31bd b0fb 97bd
000001d0: c152 1d3e 76f3 c33d c166 fc3d 601d c9bd
000001e0: 2eb7 61be 3434 05bd 2f66 f4bd 860f dc3d
000001f0: d64e b4bd 64aa 1cbe 7daf 813d d670 073e
00000200: 8435 1b3e 7989 753d 8da0 0f3d c0cf cbbc
00000210: 2b54 a1bb ab4d 11bc 5aaa 313e c5e7 183e
00000220: 823f a63d f6db b7bc 5a00 f33d 7925 c3bd
00000230: 7310 c43d 7a13 50be 5c8a 1dbd e93f e73d
00000240: 681d e8bc 839e 06bd 9ece 2a3d a899 783e
00000250: 81fb 653e c691 00be a8d0 e83d 3497 0a3e
00000260: c099 0c3d a613 363d dbae b53d 713e d2bd
00000270: 868e 5c3d ad10 4c3e 5c18 9fbd 4ca2 69be
00000280: 8b6b 713d 6760 8a3e a64d 94bd 833e 86bd
00000290: a927 be3a f047 c43d b81e cfbc db04 323c
000002a0: 2c73 1bbd 39c8 cd3d eef1 4b3e 3695 fe3d
000002b0: ae94 d33d 8906 013d 03b4 463e a24d 90bd
000002c0: ebce 11be f150 04bd 0aed fd3d 52d7 8c3e
000002d0: 3eed 60be e548 9d3e 3b1e 5b3e af91 5abd
000002e0: 9521 cf3c c25c d43d dcff bfbd e4e3 5fbe
000002f0: 9d06 41be 2f59 d23d 8d84 0bbc 54a5 40be
00000300: ec26 7b3d 1cb5 e13d 015d 033e ae61 e63b
00000310: f4ca 093e ccbf c03c 2630 283e 9885 593d
00000320: cc6e afbd cacc 88bd 629f d53c 2ada 323d
00000330: 7141 8e3d d17b 36bd d78f 15be 9405 2a3e
00000340: 2683 623e d474 123c f1ae 1b3e 915e b03d
00000350: 4430 063e 16eb 393d 9d9b d03d c954 b73d
00000360: ed22 183e 5ff8 943c f566 db3d a4b9 49bd
00000370: 9ee9 10bd 7e31 db3c 70f9 083e e365 9dbc
00000380: f363 b1bd f3a9 2d3e 2113 df3d 7cf2 843d
00000390: 979f dc3d ff52 723d 91d6 8a3d eb14 993c
000003a0: de44 8c3d fe64 eebc d661 f2bd 1998 2bbd
000003b0: 4759 863e 9947 56be 6c62 9fbd 2075 c9bd
000003c0: c966 863d 04af 00bd 9b8a 0a3c a8f4 02bd
000003d0: 09ed 2b3e 718c 493d 045f a63d 3c57 e03d
000003e0: d701 123d b18d 45bd fb9b ddbd 260e 5e3d
000003f0: b4e2 5a3d 3b6d 7fbb b031 733d 6928 fe3d

model.6.bias f4 [4]
0.20505953 0.1441506 0.14594208 0.19287013
00000000: 20fb 513e 379c 133e d771 153e bf7f 453e
